model.tflite (tflite, 72548 bytes, 6 tensors)

dense_23/bias f4 [2]
00000000: 1f5a 45be 195a 453e
-0.1927266 0.19272651

dense_22/bias f4 [128]
00000000: 7324 00bd fe67 193d b9ff bebe 1995 0fbf
00000010: f941 22be 0a3c d6bc 2858 02be 781e 3abe
00000020: 4a8f 393e 02f8 a5be 24f7 083e 5b34 abbd
00000030: 2e25 94be 8c82 85be a66f f3bd 8f6b 173d
00000040: 54ba 0c3f 660d ebbc 4e32 a0bd 71a5 45be
00000050: cf3f 943e 14c1 93be c74d de3c f0eb 4f3e
00000060: 3a26 3c3e bb0d d83d 1d5d bcbe 8cc3 cbbe
00000070: a154 573e e9ed fc3d 3e15 483e 3deb 4abe
00000080: e38f 81be a358 443d 0394 d3bd ea3b fbbd
00000090: fabf acbd 9f01 8c3e 6c8d 8ebe 5f19 6ebe
000000a0: 6569 b13d ad70 43be d0eb 713d 8e79 0cbf
000000b0: 6011 3bbe 8ff3 3bbe 4359 88bd 27bf 12be
000000c0: 3d2d a1be 16b3 753e ead6 e73d 79ca adbe
000000d0: 678d 4abe 8ee0 00bf 6225 b8bd 3717 8bbe
000000e0: 47af 853e 63de b43e fffb babe da94 86bd
000000f0: f126 76bd 08fc adbe 8227 7a3d ae88 c1bd
00000100: 1a4f e2bd a6f0 38bd df94 6b3e 4ec0 aabe
00000110: 5572 0fbf f294 003e 9cbc 5ebe ab5c 39be
00000120: 2efc e3be b2d5 2c3d 516d e7bb cc2d edbe
00000130: a804 bd3e e808 453d c384 ad3e 408e 30bf
00000140: 99ed 40bd b0c7 a8be dbb1 603e 0d07 593e
00000150: 49c7 c1bd 866d 03bf 7f7b a43e 3312 673e
00000160: b8a6 c9bd 0f6f c4be abab ccbd 1e84 6bba
00000170: b82c 093e ba40 68be bd8b 6fbd 2631 cbbb
00000180: d770 dbbd 48c7 a0be 968b a8be 78db 87be
00000190: ffd9 af3d 0df9 92be 58df 27bd a3d4 aebe
000001a0: 689b d8be 7c20 4cbe 13a9 a73e f7a7 0bbe
000001b0: 9fe1 eb3d 0299 f4be 3dbb b73d ab76 d83e
000001c0: 84e5 49be 250a 66be d346 01bf a51b a23e
000001d0: f809 493d 7e42 08be b9bb ebbd 1429 bfbc
000001e0: d870 4abe d580 37be 8dc7 bcbd d3b6 d03e
000001f0: b0af c2bd fec8 6c3e 7c6a cc3d 16f4 613d
-0.03128476 0.03745269 -0.37304476 -0.5608688 -0.15845479 -0.026151676 -0.12728941 -0.18175685
0.18121067 -0.32415777 0.13375527 -0.083595954 -0.28934616 -0.26076162 -0.118865296 0.03696781
0.54971814 -0.028692912 -0.07822095 -0.19301392 0.28954932 -0.28858244 0.027136697 0.20304847
0.18373957 0.10549494 -0.3678979 -0.39797628 0.21028377 0.12350065 0.19539353 -0.19816299
-0.2530509 0.047936093 -0.10330965 -0.12267287 -0.08435054 0.27344987 -0.2784227 -0.23251866
0.086626805 -0.19085951 0.05906278 -0.5487298 -0.18268347 -0.18354629 -0.0665765 -0.14330731
-0.31479827 0.23994097 0.113202885 -0.33943537 -0.19780503 -0.50342643 -0.08991505 -0.2716615
0.26110289 0.35325918 -0.36520383 -0.0657136 -0.06009573 -0.33981347 0.061072834 -0.09449898
-0.11050244 -0.045151375 0.23006009 -0.33349842 -0.5603383 0.12556818 -0.21751636 -0.18101756
-0.44528335 0.042195983 -0.007062592 -0.46324003 0.36917615 0.048104197 0.33890352 -0.68967056
-0.04710159 -0.3296485 0.21942846 0.21194096 -0.09461839 -0.51338995 0.3212547 0.22565536
-0.09846252 -0.3836598 -0.099936806 -0.00089842256 0.13395965 -0.22680941 -0.058482874 -0.0062009273
-0.10714882 -0.3140204 -0.32918996 -0.2653463 0.08586501 -0.28705636 -0.04098448 -0.34146604
-0.42306066 -0.19934267 0.3274618 -0.13638292 0.11517643 -0.47772986 0.0897126 0.42278036
-0.1971646 -0.22464807 -0.50498694 0.31661716 0.049081773 -0.13306615 -0.11510415 -0.023335017
-0.19769609 -0.1792024 -0.09217749 0.40764484 -0.09506166 0.23123547 0.09981248 0.05516442

dense_21/bias f4 [128]
00000000: f487 d2be 4fff f5be 6880 e9bd 0564 bbbe
00000010: 5ccd 49be c7ef 7cbe 45a2 b4be e615 39be
00000020: f329 afbb 920e 39be 0e86 0dbf 18f4 01be
00000030: 2c6e 34be 10bf 91be 8a7a f6be 451f aa3d
00000040: 235f b8be 232b e6be 2750 f5bd 2207 1fbe
00000050: 2db3 adbe c031 eabb 0f65 f8be 586e 43be
00000060: 57cf e0be c889 c1be e9e0 6bbe 07ce e4bd
00000070: dd74 95be 2ee1 cbbe 8a3a cbbe bd56 c3be
00000080: 7b84 15bf ebf3 f2be be16 d7be 3089 e8be
00000090: 0ce1 1abe 7c12 21bf 35ae 0dbd 29e6 553e
000000a0: 9ebc c6be 3a17 91bd 15e6 d0be ada8 c1bd
000000b0: 25d4 bfbe 7995 45be f9f2 2dbe 9a0b 0fbf
000000c0: e7ec 04be 22d5 29be 1c34 1abc c684 debd
000000d0: 1142 59be c134 ccbd cad7 25bf 945a 0ebe
000000e0: 47a7 4dbe 7274 7ebe c6b8 f2bd 66f9 36be
000000f0: 54cc e1bd 6bf1 a4be f40b 05be cc77 25bf
00000100: eee5 c1bd 1e66 07bf a7f2 6cbd 2a24 90bd
00000110: c9c0 0cbe 270d 7fbe f741 2fbe 67bb f7be
00000120: 2cc0 c9be 73c9 76be c67c babe d038 5abd
00000130: 62b4 66be 2010 c3be 020b 9fbd a021 3fbf
00000140: 7251 58be aaec 95be df44 2cbf 97aa 99be
00000150: c956 05bf 5354 84bd 75c1 efbd b33f bfbe
00000160: 8460 b8be 0826 09bf 95f0 01bf edf8 91be
00000170: 3b9d afbe 36a6 e3bd e9a9 dcbe fb18 22bf
00000180: 5453 b5be fdbe 8abe 20b9 28bf 32a6 36be
00000190: c77a acbd ac94 4abd bebe 36be f087 8dbe
000001a0: 65e8 0cbf 4f90 20bf 18b7 f4be 9003 19bf
000001b0: e32c 2abe 5df0 3c3d 0d21 acbe bd83 19bf
000001c0: 3b4f cfbe cbad 16bf b670 65bc 2848 c5be
000001d0: 7496 4dbd 0dac 9ebe 48c5 85be ac79 eabe
000001e0: 0efc 03bd 4226 e9be 70bb bdbe e5ef 08bf
000001f0: 1624 c53c 9b6d bfbe 939a f4bd 2b08 fd3e
-0.4111935 -0.48046347 -0.11401445 -0.36599746 -0.19707245 -0.24700843 -0.35280052 -0.1807476
-0.005345577 -0.18071964 -0.55282676 -0.1269077 -0.17620152 -0.28466082 -0.48140365 0.083067454
-0.36010084 -0.44954786 -0.119781785 -0.15530065 -0.33925763 -0.007147044 -0.48514602 -0.19085062
-0.43908188 -0.3780043 -0.23035015 -0.11172109 -0.29190722 -0.39820236 -0.396931 -0.38152114
-0.58405274 -0.4745172 -0.42009538 -0.45417166 -0.15124911 -0.6291883 -0.034589965 0.2088858
-0.38815778 -0.07084508 -0.4080054 -0.094560005 -0.3746654 -0.192953 -0.16987218 -0.5587708
-0.12980996 -0.1658521 -0.009411838 -0.10865168 -0.21216609 -0.099709995 -0.6478239 -0.1390174
-0.20083342 -0.24849108 -0.11851649 -0.17868575 -0.110253006 -0.32215437 -0.12992841 -0.6463592
-0.09467684 -0.52890193 -0.0578486 -0.07038148 -0.13745417 -0.24907361 -0.17115007 -0.48385164
-0.39404428 -0.24100284 -0.3642332 -0.053276837 -0.22529748 -0.3809824 -0.077657714 -0.7466068
-0.21124819 -0.29282123 -0.6729259 -0.30012962 -0.5208555 -0.06461396 -0.11706821 -0.37353286
-0.36011136 -0.53573656 -0.50757724 -0.28510228 -0.34299645 -0.111156866 -0.4309838 -0.6331937
-0.35415137 -0.27098837 -0.6590748 -0.17836836 -0.084218554 -0.04945819 -0.178462 -0.27642775
-0.55042106 -0.627202 -0.4779594 -0.5977106 -0.16618685 0.046127666 -0.33618966 -0.5996664
-0.40490136 -0.5885894 -0.014003923 -0.38531613 -0.05019231 -0.3099064 -0.26127076 -0.45795953
-0.0322228 -0.45537 -0.37057066 -0.5349105 0.024065059 -0.3738831 -0.11943545 0.49420294

sequential_7/dense_21/MatMul f4 [128, 6]
00000000: ec04 2cbf b2b4 aebc 2eb1 9cbd 9536 88be
00000010: 63a0 673e d0ad 32bd f0dd 523e 3d0c 2bbe
00000020: 85a8 9c3e 4c62 f9be bd1c ee3e 365f 463d
00000030: 8621 eebd dd24 a73e 5c4d c3bd ea71 903e
00000040: 08c9 12bd 0928 85be 1404 abbe 8d60 3f3f
00000050: 2b65 153f 8bd1 33bd 08b5 30bb 68b1 c7bd
00000060: 0407 ebbe 4033 123f 1199 e3bc ee5f 8f3d
00000070: aef9 fabd 98e6 563e cc84 903d 1899 ffbe
00000080: e0f6 64bd e94d f3be 2abe 52be 81e1 02bd
00000090: a015 d23d 17b7 8739 345a 72be f379 7abf
000000a0: 2daf 1c3e cc2f 1e3f 30bc 9dbd f9dd 87be
000000b0: 78d3 07be 9125 fcbd f6f4 973e ae68 acbe
000000c0: d370 393e c3dc 5cbe 897d 493c b157 03bf
000000d0: 482a 8ebd 879b d03d e266 42bd bacf eb3d
000000e0: 8d08 dc3d 3dea 2dbf aa2c 9b3c 4ea1 7b3e
000000f0: 3b9c 8b3e faee a33d cdb5 6a3e b784 343e
00000100: 3f2c aebe 0f30 9e3e 5df4 9f3e c50a ce3e
00000110: 4abb 0e3f 7e6c 593d 01ca debc e9fd 5fbd
00000120: 8b57 6abe c601 f63e 2d11 1a3e 83a1 d0bb
00000130: e6b0 37be 5dfb f53e 2cf9 a1bd c137 e83d
00000140: 94ce d1bc 734e 7ebe f15a cdbd f6f0 04bf
00000150: 8e60 163e e4ba 853e 8c60 03bf 41cf 0a3f
00000160: 4b1f 393e 96f2 7b3d 36ce 9c3e 046f 5e3e
00000170: 11a8 813e cb29 773e 8d91 ab3c d8d6 973e
00000180: 764e 053e a433 2dbe d329 6f3e 484b e13c
00000190: 3edf 103e df9d dbbe 10e9 953e e77b f1bc
000001a0: b67c 523d d273 6abd bf70 72be bafc 01be
000001b0: 5cf2 f53c a3e3 3c3d f11f 1cbe 5483 4cbf
000001c0: a945 063e 7acb 253e d63e 2e3e 4edb 87be
000001d0: f3d7 3e3d 1703 c2be f7b3 273f 741a 743e
000001e0: 3626 cc3e 2b0c 91bd d2ef f73e bfba 563e
000001f0: 68f2 e5be 2fbf a53e 384f c83e e795 5a3e
00000200: 9a7e 943e 02d5 833e 6372 683e 742d 0a3e
00000210: 6f94 bd3e a6eb c53e b2d4 fabd 6b64 02be
00000220: 2d31 00bc 71f8 e43e 88b9 ce3c 2678 0abe
00000230: df3e d8bd 43a5 eb3d 4cd7 3dbe d563 bebb
00000240: c59f 12bf 25e1 a13c 2d21 1fbe 07c2 f63b
00000250: bc07 033d 0463 7cbe cf57 1ebe 0dda d4bd
00000260: b463 03be 7bac 04be 0426 58bd e776 0ebe
00000270: b28f 07bd dd8a f93c 4009 bf3d 4090 75bf
00000280: b2ab 183e 73ba 0b3f 21d3 ebbd 3140 d4be
00000290: 9e11 303e 0854 353e 0628 0bbe bfb1 a9be
000002a0: cb19 e1be 3920 c6be 3158 ce3d d3a5 8d3d
000002b0: 235a d2bd c1eb 9dbe 245a b73c d963 0ebd
000002c0: d04e 3f3e 754a d6be 3df6 32bf 37fb a73e
000002d0: 105a f5bd 88a3 aa3b b3d2 9b3d 4643 cb3e
000002e0: ad6d 7fbf 9978 d33d b55c d7bc 1db8 d4bd
000002f0: 1208 19be 737a 203e 7aaf 893d 626c dcbe
00000300: fa8e 54bd fcad 40bf 454f e1be 80a1 543e
00000310: 10a6 a3be 6789 b03c 048c b23e e39c 9ebd
00000320: 9065 02bf 38fc 273e a992 f8bc 66e2 fb3e
00000330: 82fb 1f3c f239 41bf f093 afbe 74af 6d3d
00000340: 5fa3 983d 497d 5bbd a60e 023f c5de 99be
00000350: f217 893e 6e55 003e 1c1f 183e c02f 1a3e
00000360: 34e5 25bd d55e 9a3d a420 a6be b689 29be
00000370: 2c05 483e aa5b 3b3e c560 b5bd b5fe 8e3d
00000380: 946e ab3c 7ebd b5bd fa36 843f c651 b53d
00000390: cf0f 88bc f352 633e 141d 7f3e bcd4 9fbe
000003a0: 9e71 b9bc 087b fcbc 5cf0 72ba 8d5b 05be
000003b0: 60e9 8dbd 07f0 b4be 70b7 81be 74b5 0e3f
000003c0: 145e c53b 895e 0dbf 3579 cfbe 3dff 2bbf
000003d0: 4fd9 e83d 727d bb3e 35c7 9d3c 7e58 cf3e
000003e0: d7b1 e23d 59d8 debe 96d9 203d 562f b93e
000003f0: 91d7 19bc b92c a9be 523c 61be 9a91 6e3e
-0.6719501 -0.021326397 -0.07650982 -0.26604143 0.22619776 -0.04362279 0.20592475 -0.16703887
0.3059732 -0.48707807 0.465063 0.048430644 -0.11627488 0.32645312 -0.095362395 0.2821191
-0.03583625 -0.26007107 -0.3340155 0.747567 0.58357495 -0.043901008 -0.0026963372 -0.097506344
-0.4590379 0.5710945 -0.027782949 0.07000719 -0.12254654 0.20986402 0.07056579 -0.4992149
-0.0558995 -0.47520378 -0.20580354 -0.03195334 0.10258031 0.0002588562 -0.23667222 -0.9784233
0.153012 0.6179168 -0.077019095 -0.2653654 -0.13264263 -0.12311853 0.29679078 -0.33673614
0.18109445 -0.21568589 0.012297996 -0.5130568 -0.06941658 0.101859145 -0.047461398 0.1151423
0.107438184 -0.67935544 0.018942196 0.24573252 0.27267632 0.080045655 0.22920914 0.17628752
-0.34018132 0.3089604 0.31241122 0.40242592 0.5575453 0.05308198 -0.027195932 -0.054685507
-0.22884957 0.48048228 0.15045615 -0.00636691 -0.17938575 0.48043337 -0.07908854 0.11338759
-0.0256112 -0.24834614 -0.10027111 -0.5193018 0.1468527 0.2611915 -0.51319194 0.54222494
0.18078344 0.061510645 0.30626076 0.21722037 0.25323537 0.24137037 0.020943427 0.296561
0.13018212 -0.1691423 0.23355798 0.027501717 0.1414766 -0.42893884 0.29279375 -0.029478027
0.051388465 -0.05723936 -0.23675822 -0.12694064 0.030022793 0.04611553 -0.1524656 -0.7988789
0.1311251 0.16190901 0.17016158 -0.26534504 0.046592664 -0.37892982 0.6550898 0.23838216
0.39872903 -0.07082399 0.48425156 0.20969675 -0.44911504 0.32372424 0.3912294 0.21346246
0.2900284 0.2574845 0.22699885 0.13493901 0.37027308 0.38656348 -0.122476 -0.12733619
-0.007824224 0.44720796 0.025234953 -0.13522395 -0.10558867 0.115061305 -0.1853916 -0.0058102407
-0.5727504 0.019760678 -0.1554 0.007530454 0.031989798 -0.24647146 -0.15463184 -0.103931524
-0.12831002 -0.12956421 -0.05277063 -0.13912545 -0.033096023 0.030461723 0.09327936 -0.95923233
0.14909247 0.54581374 -0.11514879 -0.41455224 0.1719422 0.17707837 -0.13589486 -0.33143422
-0.4396499 -0.3869646 0.10075415 0.06916394 -0.102710985 -0.30843928 0.02238185 -0.03476319
0.18682408 -0.4185368 -0.6990698 0.3280885 -0.11980069 0.0052074827 0.07608547 0.39699763
-0.99776727 0.103257366 -0.026289323 -0.10386679 -0.14944485 0.1567171 0.067229226 -0.4305144
-0.051894166 -0.7526548 -0.4400579 0.20764732 -0.31962633 0.021549894 0.34872448 -0.077447675
-0.5093622 0.16404808 -0.03034337 0.49196166 0.009764554 -0.7547904 -0.34292555 0.058028653
0.074530356 -0.053586278 0.508036 -0.30052772 0.2677608 0.12532589 0.14855617 0.15057278
-0.04050179 0.07537619 -0.32446778 -0.16556439 0.19533223 0.18296686 -0.08856348 0.06982175
0.020926751 -0.088740334 1.0329278 0.08853488 -0.0166091 0.22199611 0.24913436 -0.3121699
-0.022637185 -0.030820385 -0.0009267384 -0.13023205 -0.069292784 -0.35339376 -0.25335264 0.55745625
0.006023178 -0.55222374 -0.4052216 -0.6718634 0.11369573 0.36619145 0.019260028 0.40497202
0.110690765 -0.43524435 0.039270006 0.36168927 -0.009389774 -0.33041933 -0.21995667 0.2329773

sequential_7/dense_22/MatMul f4 [128, 128]
00000000: cee7 0bbe ae70 d03d fee5 3dbe 1ae2 f2bd
00000010: 8f82 023e 4787 e93d ea56 1c3e dc0e 1bbe
00000020: b94c 04be adb8 e73d cb82 d93c f67e 08be
00000030: eb27 1bbd f047 e2bd 4fc2 1abe 7ef0 24b8
00000040: 5614 18be 3fac 3ebe 86c3 3dbd 8f8b 98bd
00000050: 02ff 7b3c 2b7a a0bc a249 403b 5a66 303c
00000060: 4d92 c2bd 5f17 f2bb 399b 17bc 39c6 78bd
00000070: 34da 553d cce8 d5bd 6053 2abe 2556 22bc
00000080: 1651 d2bd ae20 15be a5d6 2fbe ade2 05be
00000090: ab7c edbd 0867 dabb d1b8 5fbd d149 16be
000000a0: d5e8 54bd 01e9 65bc 5d77 73bd e254 3cbe
000000b0: e37b 25be dfee 9f3c 4e7b 3cbe d0d2 cdbc
000000c0: a388 23bc bced 883d 30c9 7cbc 143d 983d
000000d0: 32c2 e43c af76 d9bd 2e39 9abd c24b 09bd
000000e0: 5598 c9bd 3dc7 613d 2df3 40bd 0523 fdbd
000000f0: 5adf 81bd 3822 bb3d 4c28 42bd 2c08 cebd
00000100: d21b 0ebe 22a2 2f3c d37b b8bd 1561 03be
00000110: 831f 91bb 90c2 7bbd 4641 0dbe 5a00 16be
00000120: cf82 8e3d 5fb0 de3d 0220 e6bd aa4f 89bd
00000130: 13c5 a13d d395 e5bd d1e5 f3bd f76a acbd
00000140: 5f95 1cbe 7ca8 e1bd 2887 1dbe 7eb7 c83d
00000150: d63c 2bbd d0dd 2bbd 5a83 eabd a001 783d
00000160: 0043 c03d c860 b0bd 5d06 2b3d 5d08 f4bb
00000170: c518 cc3c af26 9dbd 3bba 503b 4ff9 5bbd
00000180: 8903 02be 2b4c 06be 5858 c8bd 1cec 923c
00000190: 9d4a e2bd 243f 993d 9aff 153d b06f cf3d
000001a0: fd78 8c3c 53ca 1dbe 4825 cdbd d431 87bd
000001b0: 86c9 7c3a d20e 37bc a43e f8ba 4d08 cbbd
000001c0: c05c cbbd b0ab aebc 4a4b 1abe 4203 483d
000001d0: 1526 bd3c 65a1 543d 001f fc3a 02df a9bd
000001e0: 85b6 c9bd 4d7b 003e 3f22 80bd 3d07 183d
000001f0: e473 02bd da48 1f3d 32f8 b3bd 1bee 4c3d
00000200: 89d0 723e 91f5 fa3e 2c58 00bd 8b3e 5a3e
00000210: ec4f 883e a4d8 f7bd b500 91bd c48e 033f
00000220: 43c5 61bc 4ebc 7c3e 0f20 a33e 1129 fcbd
00000230: 4244 8bbc 0b13 c8bc 971b 0abd 4781 b73d
00000240: 80a7 733e 4e8e 9c3e 8255 e1bd 812e 713e
00000250: 9638 85be 55df 30be 6e15 d0bd d339 a83d
00000260: 2bd1 8dbe 758a 39bd 280b 083f 966f 84be
00000270: a7fa d1bd 0a9f 873b 7cd1 4f3d 6d8d 24bf
00000280: 48fb c6be 49e6 5abf e993 203e 1cd4 3c3f
00000290: 5459 15be a509 c3be 36e6 f73c f5e2 b8bd
000002a0: a17c 793e 4645 253e a0c2 26bf 1e29 a73d
000002b0: 7e5e 33be 7dfe b9c0 389a 783e e983 c63c
000002c0: 213d 103d fcc7 2c40 ba8f be3d 2a8c 13bf
000002d0: e9e3 90bf 22ad f33e a44e cabd f63a 6d3d
000002e0: 9d99 14be 9b69 3a3d e20f c23d f67b 523d
000002f0: 4ec4 35bd b4c8 693d 0d54 6d3d c583 1a3e
00000300: 5bc7 183e 4668 75be 0ec3 93bd eae9 7e3e
00000310: 21ea f83e cc7f 953d fd61 f43d 1e81 86be
00000320: 7c14 2dbe 294d a03c 0aff ad38 5b41 b0be
00000330: 393b 7abe 5c76 f8bd 90f9 66bf 7b74 2b3e
00000340: a574 17be 433a 7e3e 0d9a 4fbf d000 88bf
00000350: e635 ee3c f881 5c3d fcd7 a2be aa97 acbe
00000360: 0775 083d 6235 b93e abb3 8cbf c604 2c3d
00000370: 2d62 2f3e a9fa 69bd f02f 27be 4633 6f3e
00000380: 5657 a43e 62b6 93be 8631 46c0 a508 21be
00000390: fdcd d1bd 7327 ac3d 5fff 4ebd a8ad e53d
000003a0: 9b05 9fc0 a727 943e cdf0 57be b7d9 9c3e
000003b0: 29d0 f5be e716 b2bf ceda fcbd 9194 4bbe
000003c0: 3c4e 033f 3f12 533e 7737 fb3d 22f5 d43e
000003d0: e467 11bf 15c5 77be 0e0b 90be 51d6 213f
000003e0: acc3 7bbd 0a9e 043f 7b28 c4be 3d9c 20be
000003f0: b4a3 d8bd 504c 913d bb9b 163e 1e1a abbf
-0.13662645 0.10177742 -0.18544766 -0.11859532 0.12745117 0.11402755 0.1526753 -0.15142387
-0.12919892 0.11314521 0.026551625 -0.13329682 -0.037879866 -0.11048877 -0.15113185 -3.9324623e-05
-0.14851508 -0.18620394 -0.046329044 -0.07448494 0.015380623 -0.019589504 0.0029340764 0.01076659
-0.09500561 -0.00738804 -0.009253317 -0.060735915 0.052210048 -0.10444793 -0.16633368 -0.009908234
-0.10269372 -0.14563248 -0.17171724 -0.13074751 -0.11596044 -0.0066651143 -0.054619614 -0.14676596
-0.05197986 -0.014032603 -0.059440006 -0.18391755 -0.1616054 0.019523082 -0.18406412 -0.025124937
-0.009981307 0.06685969 -0.015428826 0.07433525 0.02792463 -0.1061834 -0.075304374 -0.033519514
-0.09843508 0.05512165 -0.04710691 -0.12360195 -0.06341429 0.09137386 -0.04740171 -0.100601524
-0.138778 0.010719808 -0.090079926 -0.12830003 -0.0044288053 -0.061464846 -0.13794431 -0.14648572
0.069585435 0.10873484 -0.11236574 -0.06704648 0.07898917 -0.11210217 -0.119090684 -0.084188394
-0.15291356 -0.11018464 -0.1538359 0.09800623 -0.041806065 -0.041959584 -0.114508346 0.060548425
0.09387779 -0.086122096 0.041754115 -0.007447286 0.024914155 -0.07673394 0.0031849283 -0.053704556
-0.12696661 -0.13114993 -0.09782475 0.017934851 -0.110493876 0.07482746 0.036620714 0.101287246
0.017147535 -0.15409212 -0.100168765 -0.06601301 0.00096430664 -0.011172967 -0.0018939567 -0.099136926
-0.099298 -0.021322101 -0.15067783 0.048831232 0.023089448 0.05191173 0.0019235313 -0.082944885
-0.09849266 0.12547036 -0.06256532 0.037116278 -0.031848803 0.038887836 -0.08787574 0.050031763
0.23712362 0.49015477 -0.031334087 0.21312921 0.26623476 -0.12101868 -0.07080213 0.5138972
-0.013779941 0.24681208 0.31860396 -0.1231252 -0.017000321 -0.024423143 -0.033717718 0.089602046
0.23794365 0.3057732 -0.110026374 0.23552896 -0.26019734 -0.17272694 -0.101603374 0.08214154
-0.27698645 -0.04529806 0.53142023 -0.25866383 -0.10252886 0.004138832 0.05073689 -0.642783
-0.38863587 -0.8550764 0.15681423 0.73761153 -0.14584857 -0.38093296 0.03026114 -0.090276636
0.24363948 0.16139707 -0.65140724 0.08162139 -0.17516515 -5.8123155 0.2427758 0.024232822
0.035214547 2.699706 0.093047574 -0.5763575 -1.1319553 0.47593027 -0.09878281 0.057917558
-0.14511724 0.04551087 0.09475686 0.05138775 -0.044376664 0.05707617 0.057941485 0.15089329
0.14919798 -0.23965558 -0.07214938 0.24893919 0.48616126 0.07299766 0.11932752 -0.26270384
-0.16902345 0.019568043 8.2967876e-05 -0.34424862 -0.24436654 -0.1213195 -0.9022455 0.16743653
-0.1479059 0.24826913 -0.8109444 -1.0625248 0.029078435 0.053834885 -0.31805408 -0.3370946
0.03331473 0.3617354 -1.099233 0.04199674 0.17127295 -0.057123814 -0.1632688 0.23359403
0.32097882 -0.28850085 -3.0967727 -0.15725954 -0.10244367 0.08405962 -0.05053651 0.11214763
-4.9694343 0.28936502 -0.21087952 0.30634853 -0.48010376 -1.3913239 -0.12346421 -0.19880892
0.5129125 0.20612429 0.122664385 0.41593271 -0.5679915 -0.24196275 -0.28133434 0.63217646
-0.061465904 0.5180365 -0.38312134 -0.156846 -0.10578099 0.070946336 0.14707844 -1.3367345

sequential_7/dense_23/MatMul f4 [2, 128]
00000000: af2e 443e c83e c63e 2394 413e 21a3 0dbf
00000010: 35ef c83e 35b1 f2bc 8826 aa3c da85 9b3d
00000020: 26b1 133e 5b1e c7be 393a f33c a0e6 473f
00000030: 8824 003f 2a6a 1dbf acfc e7bd e86f 26bd
00000040: 3400 053f 0d55 a2be f08a 92bd 285f 1d3f
00000050: 1c5d 453f de7e 843f 4477 e53e c25a 233f
00000060: f851 e53e 92f3 43be 7e36 4c3f 6311 543e
00000070: 1ab3 65be c629 bbbe d308 96be 2334 d6be
00000080: 4a4a c6bf be58 a5bd 69f0 b93e 3ea7 12bd
00000090: a9cc c0bd 7f34 fabe 41f1 543e bfa9 663d
000000a0: b190 2c3e 7c50 53be 4530 d4be e4c5 713f
000000b0: 4f13 643d 1b6a 3fbe 6f60 093e 5883 753f
000000c0: 771d 0c3f 0133 9ebe 4771 293f 6912 693f
000000d0: c932 513f eccf 4b3f fd04 1d3d b71f 8abf
000000e0: c6a1 3c3f 48d1 9bbe 2ea4 37be 85a3 ae3d
000000f0: 72a0 663d 977c cdbe 581d 443e 90e1 183e
00000100: 2349 e23e 5f88 7bbe eedf f83e 0cee a7be
00000110: 10fa 883e ac25 2a3e ccce 013e b511 f53d
00000120: 0cdf f13e ac82 e2bd 9974 78bf 258e bdbf
00000130: 2ada 0bbd 18d9 7bbf 8951 913f a529 703f
00000140: b29a cb3f 3117 98bd 77c9 0640 5286 3ebc
00000150: d04e 06bd e298 83bf 3576 f0be f0b0 d4be
00000160: e7c1 1ebd e854 5f3e 6e1f a93d b2e4 1840
00000170: a7b4 9b3d 6aac c03e 07ec b7be 8a74 a03e
00000180: ac29 c83e e49b a43e e628 d5be c6ea 143d
00000190: f1a2 293f 2a94 c6be 4696 463e a5ef ae3c
000001a0: 0ae8 3a3f 3d94 d2bd 5430 21be ae11 03bf
000001b0: 3913 443f 22ca 463f 35f5 2abf d646 0d3f
000001c0: a5a0 cc3d 1c0b 67bd f79e 893f cca6 8d3d
000001d0: 74c9 9e3f 45e7 dbbc cb36 1b3f 3605 a0be
000001e0: 9b86 9bbf 823c e7be fd16 a33d e549 dfbe
000001f0: a901 f3bc 8360 a6be 2423 13bf efd3 483d
00000200: 3787 573e 869a b9be bffb 9bbd 397f d53e
00000210: b5e3 c0be 2173 08bd 4016 013d a9b6 893c
00000220: 3c72 05be 76e6 0e3f b1ca 8f3e c7af d3be
00000230: 3372 c5be 9b16 3a3f 91ba 1dbe 2c19 76bc
00000240: 047f 1bbf 7e97 8e3e a9a7 69bd 7ef9 21bf
00000250: dff3 12bf 2af8 86bf e211 7bbe 47ea 38bf
00000260: cda2 b4be 4995 913e 8010 15bf d939 a0be
00000270: dd29 813e 2a03 2b3f 39ce 693d a3ee 283f
00000280: fbbe be3f e773 3b3e 4ccc e6be 7443 ebbc
00000290: c904 983e 4e36 463f 040b 32be 6d60 083e
000002a0: f7fc 53be bac9 f53e 2593 fa3e 531f 91bf
000002b0: 328d 563d c1fe b23e 5e53 2abe fef6 4cbf
000002c0: 7b12 02bf 4ffb 033f 4478 94be d4b1 88bf
000002d0: 4f23 35bf 3772 2abf 4ba3 023d 2d6f 373f
000002e0: 6cc2 d3be 9d83 bc3e 1345 3ebe 3b84 6c3d
000002f0: 3be3 713d ab68 fc3e 34dc a4be a687 1e3e
00000300: 2968 33be a920 623e f329 dcbe 92e9 af3e
00000310: b8e4 8abe 3bba 06be 0035 fc3d 507c ba3d
00000320: ee03 00bf 9636 c03e c156 423f 7d93 a03f
00000330: 79ee 9c3d d052 173f 9308 59bf e3c4 78bf
00000340: 1c69 c2bf d851 8f3e 7bc8 fdbf 3281 8a3e
00000350: 9c43 a63b c507 903f 7517 303f 40ae 903e
00000360: d6f8 08bd c063 54be 29c9 353d 8af5 21c0
00000370: ef49 3ebe c634 f5be a561 193e e98d cdbe
00000380: cb60 21bf cb80 a7be 9f31 cb3e fa8f 113d
00000390: bb84 39bf 79d4 f73d e8d5 4b3e b9a0 a23a
000003a0: 131e 2ebf f467 e5bd 8fc1 6b3e ffcd 1f3f
000003b0: 22a4 73bf 234a 07bf 57f0 ea3e 4052 b3be
000003c0: 4ae6 193e 7d93 1ebd 3e88 97bf 23b5 80be
000003d0: 2ed3 81bf 14de f53d 030d 1bbf 7a5d 913e
000003e0: 4f05 933f a647 533f 30aa 023d 4181 143f
000003f0: b066 bebd dabd e83c c0ba 653f 019c 84bd
0.19158433 0.38719773 0.18904166 -0.5532704 0.39245 -0.029625515 0.020770326 0.075938895
0.14423046 -0.38890347 0.029690849 0.7808628 0.5005574 -0.6149012 -0.1132749 -0.040634066
0.51953435 -0.31705514 -0.071554065 0.6147332 0.770952 1.0351217 0.44817555 0.6381036
0.447891 -0.19135883 0.7977065 0.20709758 -0.22431603 -0.36555308 -0.29303607 -0.41836652
-1.5491421 -0.08073567 0.3631623 -0.035804026 -0.09414036 -0.48868176 0.20795156 0.056314226
0.1685207 -0.20636171 -0.41443077 0.9444258 0.055682477 -0.1869282 0.13415693 0.9590354
0.5473246 -0.30898288 0.6618847 0.91043717 0.81718117 0.7961414 0.038334835 -1.0790929
0.73684347 -0.30433106 -0.17933723 0.085272826 0.056305356 -0.40134117 0.19151819 0.14929795
0.44196424 -0.2456374 0.48608345 -0.32798803 0.26753283 0.16615933 0.12676543 0.11966268
0.47240484 -0.1106008 -0.97052914 -1.4809004 -0.034143604 -0.98378134 1.1353008 0.93813545
1.5906584 -0.074262984 2.1060464 -0.011628704 -0.032790005 -1.0281031 -0.46965185 -0.41541243
-0.03875914 0.21809733 0.08257948 2.3889585 0.07602816 0.37631541 -0.35922262 0.31338912
0.39094293 0.32150185 -0.41632766 0.03635671 0.66264254 -0.38784915 0.19393262 0.021354506
0.73010314 -0.102821805 -0.15741092 -0.5119885 0.7659183 0.7765218 -0.66780406 0.5518621
0.09991578 -0.05640708 1.0751637 0.069165796 1.2405229 -0.026843676 0.6063048 -0.31253976
-1.2150453 -0.4516335 0.07963369 -0.43611065 -0.029663878 -0.32495508 -0.57475495 0.04903024
0.21047674 -0.36250705 -0.07616376 0.41698626 -0.37673727 -0.03331292 0.03151536 0.016810732
-0.13031858 0.55820405 0.2808433 -0.41345045 -0.3856369 0.72690743 -0.154032 -0.01502065
-0.60740685 0.27849954 -0.05704466 -0.6327132 -0.5740337 -1.0544484 -0.2451854 -0.7223248
-0.35280457 0.28434208 -0.582283 -0.31294134 0.25227252 0.668017 0.057081435 0.6598913
1.4902033 0.18305932 -0.4507774 -0.028718688 0.2969115 0.7742661 -0.17387015 0.13318034
-0.20701967 0.48005468 0.48940387 -1.1337684 0.052380748 0.34959987 -0.16633365 -0.8006438
-0.5080945 0.5155534 -0.28998005 -1.0679269 -0.70757 -0.6658053 0.03189401 0.71654016
-0.4135927 0.36819163 -0.18581037 0.057743292 0.059054594 0.49298605 -0.32199252 0.15481433
-0.17520203 0.22082771 -0.43000755 0.34357888 -0.27127624 -0.13156979 0.123147964 0.09105742
-0.50005996 0.37541646 0.75913626 1.254501 0.076626725 0.59110737 -0.8477871 -0.97175425
-1.5188327 0.2799213 -1.9826807 0.27051693 0.0050739776 1.1252371 0.6878579 0.28257942
-0.033440433 -0.20741177 0.044381294 -2.5306115 -0.18582891 -0.47891825 0.14978655 -0.4014733
-0.6303832 -0.3271545 0.39686295 0.035537697 -0.72468156 0.12101073 0.19905818 0.0012407518
-0.6801464 -0.11201468 0.23023055 0.624237 -0.9517232 -0.528475 0.4588649 -0.3502369
0.15029255 -0.038714875 -1.1838453 -0.25138196 -1.0142572 0.12005249 -0.6056673 0.2839163
1.1485995 0.825312 0.031900585 0.58009726 -0.0929693 0.02841084 0.8973808 -0.06475068
